best_model_weights_b2.npy (npy, 4224 bytes, 1 tensors)

array f8 [1, 512]
00000000: 6f1a 4724 bcd4 673f e86a 41b5 a936 7dbf
00000010: 9472 7804 2255 65bf 84de 05d4 ca18 713f
00000020: 15d7 8c30 3bd9 733f 8415 8aa8 bd32 833f
00000030: fd17 d6fa 949e 60bf b923 da5e 62e9 803f
00000040: e251 0e2a 488d 723f 59b4 8f24 62d4 81bf
00000050: 12f9 5d46 65cb 7abf 8dd8 b0b6 126f 5cbf
00000060: 70b0 c005 89af 80bf 9633 7b83 d727 2fbf
00000070: c46d 63a6 d283 683f 4cec 53f4 d1c4 423f
00000080: 508c 1b40 5978 6d3f 07f4 3494 7965 74bf
00000090: 186b da31 1537 6ebf 22b9 6d9d 7136 603f
000000a0: f4d9 3ff7 aedb 71bf 990f e7ae cfa7 45bf
000000b0: cbe2 a264 8b70 6e3f a4e7 cafe fb9e 813f
000000c0: 13a8 e543 ac1f 583f e532 7293 2e92 803f
000000d0: 48dc e46e 5999 733f 344d c70b dd2b 57bf
000000e0: f344 382d 90f7 6abf a8c4 a4e1 fa1a 3bbf
000000f0: e931 fb52 9911 7bbf babe 2a35 be50 2e3f
00000100: 8f54 9de4 b89c 743f a533 0619 13eb 71bf
00000110: 9e2d 14cd 9831 55bf ecb5 1d45 4476 213f
00000120: 4846 9c8e 44ec 7ebf 924b 45a5 10f8 5b3f
00000130: 4f87 537d f999 61bf f863 754b fd35 7ebf
00000140: efd2 f131 5418 5fbf a044 31aa 0a19 65bf
00000150: 834d fbca c7f0 773f 95a7 3f10 f821 6cbf
00000160: 142b 3c5c 1d8c 6dbf f395 8065 ea6b 523f
00000170: 3b83 bfeb bd0d 7bbf b297 c15d 3e4c 663f
00000180: a037 a1e7 1aa7 46bf 0903 bdde 7b5c 3c3f
00000190: c875 2384 f2b0 703f 347c 5a83 6712 51bf
000001a0: 2ccb 9f7b d157 75bf 2c83 3012 8e40 5a3f
000001b0: f719 2634 077e 87bf af5d a67a 8565 51bf
000001c0: 586f 5bc9 0c7e 00bf cbf5 928c 7d44 6d3f
000001d0: 5ada bfca 59f6 78bf 878f 6e94 aafe 82bf
000001e0: e21c 2080 4316 603f b5d5 f143 a95a 65bf
000001f0: 9c08 4908 9df7 873f 3b1e 5aa9 f4c3 7ebf
00000200: 36a0 59f4 0095 63bf 3e30 4fe0 8cec 84bf
00000210: 596e 9324 fc5f 55bf c3fb 9a38 78ee 71bf
00000220: 384e 91cb 901a 58bf 6d8b a92c aeaa 7cbf
00000230: ccc2 00c9 5e4d 5cbf 3a60 434f b4d6 763f
00000240: 4e4d f13e 5378 59bf dc8b 5a6c e50a 15bf
00000250: 4434 5ba9 0eb9 78bf 11df 2862 8052 8f3f
00000260: 9254 45fd fcdf 61bf 8cec 0c06 1a34 4c3f
00000270: 7ee5 4c59 33a9 713f ecc9 e90b 33ab 31bf
00000280: c69a 434d 3f0d 7d3f 3e99 1417 bb3a 743f
00000290: b217 1e7b 9565 66bf 39eb f46f 22d2 55bf
000002a0: 0492 40b3 527e 69bf 0de8 19da 8162 6a3f
000002b0: 791b 2f71 c94d 8ebf 5a6c b08c 83e3 76bf
000002c0: f4cf 4ca8 06d5 44bf 9862 fec2 e3cc 83bf
000002d0: 4eb2 6d96 5adc 55bf a431 32ea 0195 743f
000002e0: 76b1 e187 5545 5e3f 8c0b e056 b7dd 843f
000002f0: 5c12 87df e8fc 51bf aa88 53d5 f3f3 55bf
00000300: d169 ed74 4c84 83bf d242 3f9e 9c82 853f
00000310: 8180 b131 6249 6fbf d19e afad 6ed5 663f
00000320: 3c65 c723 5b7f 53bf 4ed5 f4a0 b839 83bf
00000330: fe94 269d ec36 493f 3c48 3c2b 5622 8cbf
00000340: 05b7 40a9 12ad 15bf 0e7a 8ce8 415b 6c3f
00000350: b40b 75f2 2791 81bf 566e 141a 58af 7ebf
00000360: 25ce dabc e22f 7ebf d3b7 8a53 5d07 53bf
00000370: cb3b 75d9 7eff 85bf 4ad3 20d1 786d 70bf
00000380: 9815 1cd1 2555 54bf d3a9 0a0e 3022 64bf
00000390: 5524 e0f6 7737 7f3f 33cf 5502 e746 89bf
000003a0: 3767 012a 5f27 76bf 0d54 91ab 4bf1 73bf
000003b0: d054 7b51 7d19 67bf 62ae 8b59 8f2a 813f
000003c0: abd1 9900 16df 6e3f be61 1620 c5ef 30bf
000003d0: 1e72 2f68 a2da 68bf 2ebc 08f7 13ea 3a3f
000003e0: 7116 8964 fc55 67bf a7cf 457e 64d9 7ebf
000003f0: 9822 daae 0887 41bf 187b 9d16 3fe0 633f
00000400: c35e 4915 38db 2a3f c0e7 771a ef3a e6be
00000410: 8cc1 80dd 63d1 6abf 5896 3c0f ba57 57bf
00000420: 8d45 09ce 5df7 3fbf afef 4729 58ea 0c3f
00000430: cb8a c1a8 2107 48bf b34c 1192 b06c 81bf
00000440: ff1d 72dd 06bd 8abf d21e 7f9c 5d45 33bf
00000450: 7ef9 4c47 d113 80bf 00ae bb89 fed2 77bf
00000460: 9fe6 f03f 2297 863f d8f2 2e76 38e4 61bf
00000470: 5c74 0390 ec7e 7fbf 5e8f f52a c197 713f
00000480: 497d 5f27 668e 763f a0e5 341b 30e8 68bf
00000490: 7a52 4c16 0284 7fbf a0e5 871f 0b38 873f
000004a0: 847a c671 376d 6a3f 6bce 1b76 4aa3 86bf
000004b0: 76e4 a685 d7e1 1dbf a382 9854 bf53 81bf
000004c0: b673 5aba b469 573f 5587 e137 5bc6 64bf
000004d0: 59a7 8445 0410 56bf ce59 f5f6 e6a5 50bf
000004e0: 25df 2eb6 5245 7fbf 35d0 21b8 1fa8 7abf
000004f0: b698 284d e9d1 7ebf 8b8e d8b8 c451 53bf
00000500: d412 e949 d01c 5e3f 1a9f dd1c 69c3 70bf
00000510: ac55 9264 9213 6abf 8c55 3adb 157c 77bf
00000520: 2b4e 35de bc38 803f 038f b548 ca1c 663f
00000530: 3c66 cc61 3401 79bf 948c 00d4 ed6b 83bf
00000540: 0988 59ff 7db2 66bf 7a10 a89a ac84 76bf
00000550: b18a ad89 086b 47bf 40c7 2291 4270 6f3f
00000560: 48ca ead7 f2fe 84bf 3c56 63d9 ab37 913f
00000570: 3a6a 8e42 99a4 833f 0151 4d0d ff69 3ebf
00000580: e5cc 0812 7da6 7abf c9c7 7756 0193 69bf
00000590: 952d ac7e 5fe7 3fbf 028f c310 f288 6e3f
000005a0: 01a9 b764 5d7e 843f 3b64 b8aa 5762 533f
000005b0: a6ce d878 ac56 6b3f 89ad d753 78ce 473f
000005c0: 5a34 1464 16d9 8a3f ab9b b7cc 30b2 593f
000005d0: 423c 3e66 bf84 7fbf 3c72 165e ea80 403f
000005e0: c208 c152 49c1 6d3f 65b7 d9c3 3ded 693f
000005f0: 455e 7125 1fb6 67bf 46d3 884d 43ff 83bf
00000600: 11d9 a31a 6d7a 6dbf ed71 3b53 156c 793f
00000610: 6f4a 3118 a156 483f c81e 4c0c 6d52 453f
00000620: f02e d552 7117 f33e c702 bb13 b492 80bf
00000630: 0e4d 1342 1b80 74bf b236 7ff7 79c5 303f
00000640: 83de 2f5f 7411 72bf aad5 5dc2 a35e 933f
00000650: 82ef a24f 391a 813f 8aa4 918f 78de 72bf
00000660: 2147 497f 7d87 6bbf 068d 1085 d35d 79bf
00000670: 53d0 0a7f e15a 49bf bc31 4562 1ded 61bf
00000680: 54ec 4259 b9c2 523f d032 f72b 7795 6a3f
00000690: 1559 a169 0f0e 87bf 7705 32fb 9d14 85bf
000006a0: 4422 92dd 124c 6abf d051 3f6f f6ea 4bbf
000006b0: 0ccc 05d3 a955 73bf d081 3c98 0c10 79bf
000006c0: 5391 5f79 fbc9 76bf bc61 077c 457b 5e3f
000006d0: 190d 840b 64d5 773f 193a 7b21 0012 58bf
000006e0: 4332 e4c7 0bb4 68bf 9861 08cb 18c4 48bf
000006f0: 4eb9 ddd9 187f 773f ea12 e7e3 cabc 52bf
00000700: 230f 8ff6 070d 50bf 60ad 66b8 1ba5 80bf
00000710: 21f4 4c43 660f 3fbf f0f9 edb8 4aac 2e3f
00000720: 1f13 acdb 0c81 65bf 92bd 8d42 9eb8 163f
00000730: 7268 1505 5335 683f af0a 5850 5a8b 4fbf
00000740: ecd3 5e35 e4ec 4dbf f3ee 87d4 833d 07bf
00000750: a1f2 a0aa 0a2c 84bf d4d6 6ecd 248c 66bf
00000760: 458b 7e6c 0b58 44bf 26e6 b5ea fbe7 60bf
00000770: 9587 bd27 e3fd 6dbf 87f3 38b7 d089 6dbf
00000780: 7ccd 8e58 f868 85bf cd56 f903 c645 59bf
00000790: 4473 1c75 8d04 69bf 55fb 884f d9db 6bbf
000007a0: b09b f125 c54a 74bf eb3b 91b9 daec 79bf
000007b0: a0af d6e8 6294 80bf 7242 d163 bac4 723f
000007c0: 35f3 8a8c 7b84 69bf 04e3 1bdf 0368 683f
000007d0: d7ea 46c7 cfd2 4fbf 9ef9 ccd5 ad45 75bf
000007e0: 6b76 3107 6f1f 70bf 3b71 40b5 1608 70bf
000007f0: 4ac9 20f6 9a69 f93e bb58 4f0a 5561 06bf
0.002909057106282468 -0.007132208749761594 -0.002604071083409496 0.004174034402573693 0.004845839700285533 0.009374124246515299 -0.0020287427675524925 0.008257645148903469
0.0045292681615092 -0.008705870381129953 -0.006541629414526422 -0.0017354662657118908 -0.008147306907709345 -0.00023769861012681571 0.0029925455338408475 0.0005727791946407239
0.003597425763346908 -0.004979586522776642 -0.0036883748969790513 0.0019790858308886975 -0.004359897098757493 -0.000660873802012396 0.0037157747766197505 0.00860401984515475
0.001472395160443178 0.008091319918344062 0.004784917209966606 -0.0014142664577903698 -0.0032918754529950244 -0.0004135954383342557 -0.0066085805153304 0.00023128816481720276
0.005032274473554157 -0.004374575234021548 -0.001293563098729723 0.00013322432874522617 -0.007549541283667312 0.0017070925287796285 -0.0021486161082159626 -0.007375707085281562
-0.001897890302442192 -0.0025754173562196475 0.005844860497478679 -0.0034341664304422073 -0.003606850952455951 0.0011243618992095 -0.006604902151566001 0.0027219026651889794
-0.0006913071986305204 0.00043275856181783416 0.00407500012280821 -0.0010419855947601088 -0.005210703175168512 0.0016023051655411165 -0.011470848349529368 -0.0010618022448392985
-3.1456723417837534e-05 0.0035726978427123904 -0.0060943133830649535 -0.00927479997137205 0.001963741146940743 -0.0026067071881310197 0.01170275384459201 -0.007511096676928337
-0.0023903864519532426 -0.010216808886888026 -0.0013046228726158098 -0.0043778129708575446 -0.001471177484081999 -0.0069987109842227615 -0.0017274308811573878 0.005575851759395839
-0.0015545666644996739 -8.02710083811909e-05 -0.006035859367057365 0.015294077869028951 -0.0021820012281446666 0.0008607031887558777 0.0043117528737693905 -0.0002696036935169444
0.007092711708742433 0.00493882257550232 -0.0027339858579038196 -0.0013318382551250187 -0.003111993335567444 0.0032208000346232225 -0.014796804205514867 -0.00558806788014995
-0.0006357462412780444 -0.009668139827952602 -0.0013342747349397613 0.0050249171064361865 0.0018475852262112825 0.010188515032501198 -0.001097896018209663 -0.0013399010834338845
-0.009529683416691722 0.010503028468435902 -0.0038191717008402852 0.0027873193443957796 -0.0011900320088130264 -0.009387438213347334 0.0007694869366800248 -0.013737366861764959
-8.268762968618663e-05 0.003461483695345941 -0.00857764443083462 -0.007491439960428522 -0.007369886106676248 -0.0011614238157266934 -0.010741225253381522 -0.004010650578540284
-0.001241003923895567 -0.0024577082225125473 0.00762125836446 -0.012342266806377821 -0.005408641562178399 -0.004868789278664754 -0.002819771539956585 0.008381957931724308
0.0037684850438443793 -0.0002584320319214648 -0.0030339405070505384 0.0004106806509608954 -0.002848618464016899 -0.007531540443199625 -0.0005348961255587535 0.0024262649721288436
0.00020489749535345354 -1.060019060527054e-05 -0.0032736731045803266 -0.0014247242915613936 -0.0004877666488357295 5.5151763408616834e-05 -0.0007332720138147562 -0.008508090455654793
-0.013055852540005295 -0.0002940515082596576 -0.007850298870491153 -0.005816454209461863 0.011030452324223559 -0.0021840193525960276 -0.007689403603049785 0.004295115052943858
0.005506896055492768 -0.003040403325624566 -0.00769425215982677 0.011337363147492507 0.003225906648551659 -0.011053640107525816 -0.0001139915270077662 -0.008460516709477622
0.0014290108605685531 -0.002535989914620377 -0.0013465921129615836 -0.0010161166681733505 -0.007634471027749422 -0.006507991698629968 -0.007524405797573566 -0.001179163085347409
0.001837924391694991 -0.004092608067231907 -0.0031831607089524896 -0.005733571411515991 0.007920718699700199 0.0026992750987789873 -0.0061046644375664615 -0.009483202011386895
-0.002770658577717637 -0.0054976217602452585 -0.0007146636665818687 0.0038377094398009126 -0.01025190087725493 0.016813931601822527 0.009591290801656095 -0.000464081543488662
-0.006506432110245462 -0.0031218553665377275 -0.0004868133679997941 0.003727410110615171 0.010006646762992679 0.001183114635642703 0.003337227687348082 0.0007265174423855418
0.013109373978773476 0.001568362861570564 -0.007694957403045656 0.000503649174948224 0.0036322052092439836 0.0031648832653478503 -0.002894459564725146 -0.00976421909681736
-0.0035984164179537832 0.006206591893456165 0.0007427488893746013 0.0006506950818172203 1.820714276350074e-05 -0.008092314579131522 -0.005004984356861598 0.0002559111376257791
-0.004411177232206523 0.018915709245865088 0.008350799315273386 -0.004606696072280711 -0.0033605052106303744 -0.00619299530902429 -0.0007737732940627052 -0.002188260450713934
0.001145058636253156 0.003245098836237005 -0.011257286463813668 -0.01029323027455818 -0.0032101028887761302 -0.000851984338164297 -0.004720366836738609 -0.0061188213328766256
-0.005563719101676706 0.001860444885201414 0.0058187397010016845 -0.001469135406228289 -0.003015540131974499 -0.0007557984409372496 0.005736443590519903 -0.0011436444616361127
-0.0009796693577621216 -0.008127419056868035 -0.0004739403405443228 0.0002340165342182422 -0.0026250125059753683 8.667436544639574e-05 0.0029551145059203915 -0.0009626570687831427
-0.0009132494258127211 -4.432734073486584e-05 -0.00984962781159854 -0.0027523726270953595 -0.0006208472996046341 -0.0020637436152213416 -0.0036611019731233687 -0.0036057545164837643
-0.010454120829172402 -0.0015425142045350393 -0.0030539286461945 -0.003400730547837775 -0.0049541188337575565 -0.006329397577316857 -0.008095524531050391 0.004582145772545775
-0.003114930445319431 0.0029792857757197106 -0.0009711756270499261 -0.005193404239263092 -0.003936227515706751 -0.0039139639884775935 2.4235268377200977e-05 -4.268685123747078e-05
