best_model_weights_W3.npy (npy, 41088 bytes, 1 tensors)

array f8 [512, 10]
000000 fc 94 8e 3c dd 82 ce bf 14 fd 7e 1a 18 0f c5 bf
       -0.23836865860827305 -0.16452313703300858
000010 40 ae 64 dd 2d 8a d0 3f 25 c3 8f 20 fa a0 cc bf
       0.2584337865871227 -0.22366262998505096
000020 9a c4 6f 0c 71 91 c7 bf d2 54 d4 2f 09 5e 8a 3f
       -0.18412602526908445 0.012874671718729056
000030 10 b9 49 40 e3 c8 b7 bf a8 33 8f 16 c1 a1 cb 3f
       -0.0929090530350758 0.21587384797603915
000040 99 38 81 34 92 71 c6 3f c7 90 b4 49 a8 f9 43 3f
       0.17534091533383814 0.000609595462638634
000050 53 a3 c3 7d 78 96 d6 3f c5 c1 67 7c 17 03 c0 3f
       0.35293400079404086 0.12509435247876702
000060 e0 33 c5 0a 58 33 e8 bf ed 13 18 bb c4 f4 d2 bf
       -0.7562675676687114 -0.29618948241142
000070 f3 22 96 25 fe e3 e6 3f 81 43 9e fb 88 f5 a3 bf
       0.7153311475859411 -0.03898265906821675
000080 7b 4d 00 9f 83 bd e1 3f cb e7 5e 21 f6 06 d5 bf
       0.5543840508930055 -0.32854989298686793
000090 04 05 c0 76 50 98 d1 3f 6d 02 72 1f 77 24 d3 3f
       0.27492152783095514 0.29910066672167696
0000a0 bd fb 16 e1 3d 45 cb 3f 55 bb 87 0f cf ca b9 bf
       0.21305058947288372 -0.10075086716800048
0000b0 d5 7d ff b4 53 8e 81 bf 62 84 fd b3 e6 75 c0 bf
       -0.008572248421784426 -0.12859805859173706
0000c0 c7 80 10 f4 7f b6 96 bf 7f f4 3b c1 62 44 c8 bf
       -0.022180556556236988 -0.18958696780456205
0000d0 9c 1e 7f 7c 0e d9 a9 bf 7c 23 cf 91 2a 63 ca bf
       -0.05048413533910187 -0.20615131492220573
0000e0 d5 5e 6b 4a 95 1a e4 3f 0b 76 82 fe 9b c1 c7 3f
       0.6282450154785361 0.18559598853327972
0000f0 0f 51 07 a5 b8 33 bb 3f 0b 30 e6 52 3f 80 c2 bf
       0.10625795392053682 -0.1445387987881762
000100 b4 d7 f8 64 e2 11 d1 3f 65 59 a3 c7 71 ef e6 3f
       0.2667165742926685 0.7167290591412835
000110 e3 6f 48 e0 0e 43 d1 3f 2e 16 c2 78 04 4e e7 3f
       0.2697179022086386 0.7282736166532169
000120 1f 4b f3 f6 e3 d9 d6 bf aa 95 cc 57 d1 4b d9 bf
       -0.3570489799141558 -0.39525254797112075
000130 d7 9a a2 88 cd 99 e5 bf 7b 35 92 72 08 c4 d2 3f
       -0.6750247639327779 0.2932149046763112
000140 f1 e0 46 3a d8 2e 83 bf 88 39 61 e5 fe fa d1 3f
       -0.00936669280859845 0.2809445610081629
000150 d3 8a 51 7e 7a 79 ba 3f 56 68 55 d2 43 ce c1 bf
       0.10341611465404847 -0.1391072060603757
000160 ab 3c 66 50 b7 4e e6 bf f9 52 ad b1 ad 69 c6 3f
       -0.6971088953304351 0.17510005164753986
000170 68 49 32 ca 9f d1 d7 bf ff 60 9d f1 de eb db 3f
       -0.3721694445204293 0.4362714156645921
000180 ad 3c 02 e6 f9 27 df bf cf 7d fe c4 04 d7 c3 3f
       -0.48681495153227666 0.15499934786656275
000190 e1 91 ec 3c c6 4e d9 3f ca 52 02 f5 08 a0 ec bf
       0.39543300580615265 -0.8945355210622321
0001a0 44 d0 8a e9 61 1b b9 3f 84 2a 8d 58 cb fc c6 3f
       0.09807407333102086 0.1795896704082517
0001b0 c3 d5 04 8f 3d 4b b0 3f 5a dc f8 39 c4 b0 d4 bf
       0.06364807836219825 -0.3232889715322408
0001c0 73 9b 95 5d e9 be b2 3f 1f 48 55 fe 17 af d7 bf
       0.0732255795934245 -0.3700618728372564
0001d0 65 4b 98 31 a6 e1 cb 3f 8f e0 f0 11 3e 7b b4 bf
       0.2178237669146156 -0.08000553071986104
0001e0 48 d1 d1 b5 c1 f5 a0 3f 67 34 7c 0a ae d5 99 bf
       0.03312497467496428 -0.025229186429943342
0001f0 38 c5 83 67 a9 c2 d3 3f 39 e7 92 40 e8 0a d1 bf
       0.3087562094579712 -0.2662907248119271
000200 36 ee 62 46 6e 42 c5 3f f2 56 32 5f b8 04 b8 3f
       0.16608980595434425 0.09382202457558345
000210 33 b5 89 d1 3b a8 c8 bf 0f 9e fa b4 df cc d4 3f
       -0.1926340840467816 0.32500450776794393
000220 66 7d 23 e2 9c 69 d4 bf 9e 30 dc 10 63 8a da 3f
       -0.318946095312603 0.4146964707040385
000230 9b 09 e0 b2 21 7c e1 3f 40 d8 7e 64 fa 72 d3 3f
       0.5464027875571448 0.3038927060509913
000240 c3 ee 8b c4 82 88 ce bf 70 72 9e 07 b7 6f e6 bf
       -0.23854097935678995 -0.701137080078821
000250 51 85 a9 ef 91 fa db 3f bb c1 46 58 a2 55 e1 3f
       0.437168582959278 0.5417033886097252
000260 07 62 2d 17 4c b1 b6 bf a6 cc 55 5f 47 91 cb bf
       -0.08864284101344576 -0.2153710570815736
000270 57 66 1b b7 c5 b4 c5 bf 97 62 32 5e 08 7b e5 bf
       -0.16957923355839696 -0.6712686385900096
000280 91 00 64 29 12 37 b9 bf cc bb 76 b7 a3 ca c2 3f
       -0.09849656591905133 0.14680906732743748
000290 d9 87 95 f1 eb 12 e3 3f 78 f0 15 07 43 8d 75 bf
       0.5960597723426374 -0.005261670901173791
0002a0 ef c8 cf 90 18 b5 c5 3f f1 69 68 2e a7 d7 e3 bf
       0.16958911009675812 -0.6200748354343074
0002b0 c8 cc bf 72 1e 44 b7 3f 9b 90 d1 22 47 5e e1 bf
       0.09088316251272766 -0.5427585296679526
0002c0 26 ec 68 4e 45 6c e1 bf 2f e9 b8 67 a4 f2 e6 bf
       -0.544466641563649 -0.7171194101167994
0002d0 bd 30 be 16 f5 a6 d2 bf b7 10 c3 a4 e2 77 e3 bf
       -0.2914402696703851 -0.6083844392783452
0002e0 f9 0b 94 43 46 2c d5 bf cc 30 19 ac 0d 6f e3 3f
       -0.3308272991127406 0.6073063241288081
0002f0 6b cd 18 15 41 8a b1 bf 3d e1 8f 19 52 74 db bf
       -0.06851584210453658 -0.4289746522549825
000300 f4 c1 bd 70 af f9 d2 3f cb 0a 2a bf d1 bb 94 bf
       0.29648958215605536 -0.020247723858583904
000310 17 df dc e7 65 48 e2 bf 6d 23 58 f4 fa 75 c4 3f
       -0.5713376549310593 0.15985047274468958
000320 4b 62 09 4a c8 76 c6 3f 8f c8 ea cf ab b6 c5 bf
       0.17549995055266474 -0.16963718082621823
000330 38 00 3b f0 68 7c e0 bf 7b 12 9a f2 10 e7 d0 3f
       -0.5151867572785767 0.26410316173159004
000340 1e 3e 28 08 a4 56 cb 3f ab b3 4d cb 4c 20 e4 bf
       0.21358156584072757 -0.6289428683063439
000350 fe 06 98 ea 17 af a2 3f 1a de e3 98 8b 00 c4 3f
       0.03649210680670299 0.15626664128625195
000360 45 61 4f 89 ed 75 e4 3f de dd 3c 10 91 8c b3 3f
       0.6393954927289448 0.07636362692289064
000370 59 31 20 74 04 60 9b bf e2 c5 dd 06 12 28 be bf
       -0.02673346480155323 -0.11779892604479117
000380 31 ad 2a 99 5b 3e d7 bf c8 9a a2 14 e4 07 c3 3f
       -0.36318101842580847 0.1486783123738944
000390 7d 2f e6 87 bb 23 c6 bf 0d 73 fa 25 a8 76 e2 3f
       -0.17296547065449977 0.576984476257708
0003a0 b4 2c af 45 73 5b c8 bf 27 e2 b2 8a 13 45 d2 bf
       -0.19029084112694294 -0.2854660849075423
0003b0 29 65 b8 82 59 49 cb 3f 75 8d 71 49 d3 ef d6 3f
       0.2131759537012752 0.3583877770635902
0003c0 a7 91 4d 53 19 76 da 3f ab 97 3d 6b 0d 21 d0 bf
       0.41345818648394544 -0.25201735947336584
0003d0 0d f4 4b ac d4 52 d1 bf e7 70 11 fc 18 68 e0 3f
       -0.27068058801506895 0.5127072261052746
0003e0 17 bb 64 c5 25 a7 c3 3f 05 2a 25 75 14 ca c1 bf
       0.15353843820909027 -0.1389794895170128
0003f0 c5 b5 db 4d 92 30 d2 3f 09 31 a6 05 89 62 dd 3f
       0.28421456912368753 0.4591391139190511
000400 0d f0 85 f9 8b 06 c8 3f 9c 93 25 99 6d cf df bf
       0.18769979175328935 -0.49703540759792886
000410 93 07 08 af 46 a5 ce 3f 91 d1 1f 87 6b ce cf 3f
       0.23941882654622457 0.24848693940988345
000420 af 38 1c b2 45 8f dc 3f 36 8b e9 57 72 5e be 3f
       0.4462446441037952 0.11862864157005223
000430 7d 29 85 49 8c c7 ce 3f e0 61 a9 e6 07 4f e0 3f
       0.24046472158290647 0.5096473221884104
000440 8e 6d b8 09 73 94 cd bf d5 4f ae bd 50 5b ca 3f
       -0.2310928151572224 0.20591172467959376
000450 29 f0 76 76 b9 dd 84 3f 32 29 a8 e7 f1 b1 b7 bf
       0.010188530853035687 -0.09255897432027352
000460 72 2d 3e 24 62 58 8e bf ff d4 d4 8d 72 7f d2 bf
       -0.01481701539139266 -0.28902877665252896
000470 a8 85 8c 50 d8 45 dc 3f a2 85 e0 95 0a b1 b1 bf
       0.4417629992113583 -0.06910768660647773
000480 dd e4 af ee d9 90 b6 3f 62 d2 59 d3 00 18 c7 bf
       0.08814775540658411 -0.18042002029291654
000490 5f 4a 4c 9e 0f b7 a5 3f 64 8d 67 02 2a 6b d9 3f
       0.04241226966236832 0.3971657775384385
0004a0 d9 1e b1 54 67 6e dd bf 15 43 5a ff 8b f7 d0 bf
       -0.45986350317660435 -0.26510906159187303
0004b0 a1 75 41 c9 fd 34 65 3f eb 7d e5 c1 e8 ac a7 bf
       0.002588744808277269 -0.046241067570686877
0004c0 e2 19 07 46 78 ec e0 bf 45 6e 72 af e3 45 c9 bf
       -0.5288659446458122 -0.1974453550982266
0004d0 6e 51 7f 2a ca 42 d4 bf e4 d5 d3 b0 75 d9 80 bf
       -0.31657652044420714 -0.008227271517607222
0004e0 fd f3 41 01 20 f8 d6 bf 64 1d fc 14 0b 7a c5 bf
       -0.35889434931578973 -0.16778696560525497
0004f0 c0 75 66 ef 8c 8f c4 bf e2 36 40 80 38 82 e1 bf
       -0.16063081445183336 -0.5471460823916596
000500 ac 2e fb 53 69 26 c7 3f dd af b5 ab 65 54 ca bf
       0.18085972405093764 -0.20570059665931142
000510 e8 d4 86 d5 ce b0 bf 3f c5 ba 8a 9b ad 8a d2 bf
       0.12379162514737951 -0.28971424283637887
000520 e7 c0 79 c9 11 95 c1 bf 0a 27 a9 e2 30 ba ab 3f
       -0.13736173951793448 0.05415489928107149
000530 5c 3f 8a 53 63 a1 d9 3f 12 17 01 42 14 de 97 3f
       0.4004753413982962 0.02330810215814611
000540 94 c9 a7 5e aa 58 e0 bf 19 eb cc 82 34 fb d6 bf
       -0.5108234261263527 -0.3590823438022866
000550 d4 52 8f 61 bc 06 f2 3f 48 60 4e 39 24 bf db bf
       1.1266444979602754 -0.433541351283115
000560 5d 18 90 2b 40 63 cb bf 66 90 26 31 1c 51 c3 3f
       -0.2139663899144492 0.1509127845757831
000570 5e be 5f 58 d5 89 da 3f 7a e1 c6 31 66 aa d6 3f
       0.41466268186829847 0.35415034161589853
000580 50 3d b6 d9 df c0 e1 3f eb 61 a2 92 eb ec d4 bf
       0.5547942402062436 -0.3269604618049288
000590 e6 6e 5e 3a 03 69 8e 3f 85 07 47 73 21 0d de bf
       0.014848733156945081 -0.4695514322048598
0005a0 01 70 22 87 ed 54 6a bf 78 a4 36 42 3e bd c8 bf
       -0.003214324876422481 -0.19327524407461616
0005b0 1b d4 07 0a 36 9c d1 3f b2 41 17 76 04 65 d8 3f
       0.2751593683199773 0.3811656144362373
0005c0 2d 68 b2 73 9c 64 cc 3f e4 88 fb 9f 97 2b c5 bf
       0.2218204083372383 -0.16539283095978086
0005d0 e6 6e cb ac 75 9e e9 bf db 45 05 c6 39 c6 b8 bf
       -0.8005932211776468 -0.09677468380439029
0005e0 34 dd 2d 8f 6d 3c d9 bf e2 e7 c6 0d 50 ef c4 3f
       -0.39431323034610277 0.16355324433044333
0005f0 e8 cd 33 ff a1 51 e5 bf 43 c1 9c f8 e1 31 e7 3f
       -0.6662149414464098 0.7248391967496349
000600 1f 52 d3 12 85 9a d8 3f 8c c0 d2 8f a8 a5 e0 bf
       0.3844311412661074 -0.5202219780967581
000610 ef 65 dc ea 68 26 e3 bf aa 71 a8 9c 0d e0 d5 3f
       -0.5984387004020258 0.34180012034064566
000620 1f 5a ea 90 d9 42 bc 3f a9 07 11 b6 2b b7 ab 3f
       0.11039504802679588 0.054131856894414306
000630 ba 02 76 65 84 c6 b2 bf 09 c6 7c 0c fe ec de 3f
       -0.07334163167071042 0.4832148668238863
000640 68 29 0b a7 9f 4d e2 bf 58 f2 1f ca 26 7c d3 bf
       -0.5719755423136066 -0.3044526075243872
000650 97 28 f9 a7 27 a5 c4 3f 8a 0b 6d 88 ca ca cf bf
       0.16129012777156923 -0.24837619458602617
000660 50 5f f4 90 87 f2 e3 bf d4 67 21 a7 7d 42 c8 bf
       -0.6233556586403015 -0.18952913914364322
000670 34 bd d4 c8 82 97 be bf 11 5c a9 4c b5 bd c7 bf
       -0.11949937251187209 -0.1854769348453549
000680 57 c9 5e b3 8d 39 c8 3f ee 8a 5f 49 b2 79 d1 3f
       0.1892563939887377 0.2730527607474603
000690 45 b7 0b d9 7f 32 ce bf 81 77 b1 ca 50 1c c6 3f
       -0.2359161195558334 0.17273912331705435
0006a0 b4 ab b9 53 6f df d6 bf 4b df cc 00 0a 25 eb 3f
       -0.3573873822812701 0.8482713714247238
0006b0 81 cd 3d e4 25 2c d4 3f 10 37 ff 60 b8 8d d2 3f
       0.31519458092881086 0.28989991638523893
0006c0 97 a8 aa 1c d9 54 cd bf f2 51 d9 15 f6 86 d9 bf
       -0.22915185832727467 -0.39886238225633897
0006d0 0e 98 3b 7a 16 00 b2 3f 7d 38 b9 07 95 50 b8 bf
       0.07031383976172398 -0.09497958601534325
0006e0 4b 05 a6 bc 9d d1 d0 3f 27 d7 1d 00 11 c7 da 3f
       0.2627939550657927 0.4184000493181536
0006f0 97 42 a5 0c c7 31 dd 3f 08 07 a3 33 5f 70 a4 3f
       0.4561631797305749 0.03991982941944455
000700 c6 06 e3 77 71 ba d6 bf 9c 07 7a 03 d0 79 b5 3f
       -0.3551295920152423 0.0838899620521531
000710 58 a1 a8 84 64 94 d3 bf 47 43 12 9a 79 ae d5 bf
       -0.3059321685309633 -0.33877410932568747
000720 ff ae 61 2f 06 4f c5 3f 0e b6 48 c0 9d 37 95 3f
       0.1664741259913782 0.020719971524320306
000730 18 79 77 b3 c3 27 d2 bf 85 99 be d2 8f c9 ec bf
       -0.283677029858056 -0.8996047130683996
000740 16 a4 89 a1 ab 95 e1 bf 8b c9 81 c8 09 fa d0 bf
       -0.5495203166038916 -0.2652611215663902
000750 e2 b2 d5 09 00 18 d2 bf 92 ff a1 a5 e1 b4 dc 3f
       -0.28271485290933474 0.4485401265628691
000760 5c fa 8a 17 ee c1 a5 3f 9c 75 24 95 6f 9e db bf
       0.042495193838011786 -0.43154515804948246
000770 4f 28 a9 58 f3 c2 dd 3f 04 1e 57 81 7d cd e2 3f
       0.4650238385989995 0.587584259622361
000780 da b4 46 8c 5d a9 d3 3f 21 a2 d4 46 34 8d e0 3f
       0.30721224497649546 0.517236841526998
000790 e4 37 28 dc 63 fd d6 3f 9f d6 1b ed 01 93 b0 bf
       0.3592157030078609 -0.06474315680301367
0007a0 dc bd 8a a0 03 52 c9 3f 1c 60 e3 54 d5 16 dd 3f
       0.1978153737922942 0.4545186356531319
0007b0 03 33 df 85 d5 03 d4 bf 66 06 79 3d 19 16 d1 bf
       -0.31273401330399525 -0.26697379115294095
0007c0 54 08 0b 89 b1 cf a6 bf d1 bc d2 86 71 06 e1 bf
       -0.04455332563294748 -0.5320365556016445
0007d0 7e 41 e0 e5 f7 a7 d4 3f 6a 0b a7 6e a6 e0 d4 3f
       0.3227519745714956 0.32621155553731873
0007e0 85 b2 a5 7a 84 53 b0 bf 2b c6 c2 49 0d 9a a1 bf
       -0.06377437586133723 -0.034378447774895037
0007f0 5b 2c 71 f2 44 76 d9 bf 88 7e ae 54 4c d9 ce bf
       -0.3978435866926639 -0.2410064137920822
