best_model_weights_b1.npy (npy, 4224 bytes, 1 tensors)

array f8 [1, 512]
000000 7b b8 6d b4 6d fa 5c bf 58 4c 41 5d cf 54 79 bf
       -0.0017686911903314329 -0.006184396759709797
000010 50 86 d8 2a 02 9c f4 3e a9 00 36 6d d2 fd 63 bf
       1.965466315401724e-05 -0.0024403676886209547
000020 6a bb f8 58 3c 19 7d bf ff 75 20 1a 05 50 6e 3f
       -0.007104144795035386 0.003700265850979489
000030 80 94 fb cf 58 dd 65 3f 46 01 32 3c b0 17 41 3f
       0.002669023000509585 0.0005216227076659051
000040 9b 40 19 14 2f 5e 5c bf 0b 8a 44 78 d1 e7 4c 3f
       -0.0017314395667149876 0.0008821270753610067
000050 c5 e1 c6 b9 13 c1 63 bf b0 98 05 27 b7 b3 65 bf
       -0.002411402250995761 -0.002649171561802076
000060 69 cb 4c 06 35 49 75 3f ae 01 54 03 98 77 26 3f
       0.005196768882160232 0.00017141085269402112
000070 9e 22 2d ab 08 bb 6d bf a6 45 de c0 80 6c 5e bf
       -0.0036292237577167505 -0.0018569238049831265
000080 6c cf 57 37 e7 ae 47 3f 9d 56 70 23 3a ef 4c 3f
       0.0007227543816825505 0.0008830102805201416
000090 dd 9d 1b f1 f2 4f 7f bf 72 32 d1 e5 05 d6 69 3f
       -0.007644604674829717 0.0031538119497212464
0000a0 a9 a4 f9 0d df 20 66 3f bb bd cb 8c a6 d2 80 bf
       0.002701221135613514 -0.008214284106968664
0000b0 66 33 3c ff 58 e8 13 bf 58 80 d5 d7 1f 7c 63 3f
       -7.594149775176431e-05 0.002378523057515774
0000c0 2f 9a 5e 7f e8 0a 5f bf fb 06 44 2c 3c 66 7c bf
       -0.0018946905597460142 -0.006933436441842518
0000d0 ca 12 a2 41 8b 61 80 bf c3 d9 b5 ba 3b d3 80 3f
       -0.007998550358260376 0.008215395579765144
0000e0 17 9a 77 62 d3 93 7f bf 7f c7 b7 c5 30 ed 7e bf
       -0.007709336968650968 -0.00755042125409655
0000f0 4e 0b 91 c8 e1 8f 75 bf fe 13 cc e1 32 69 52 bf
       -0.005264169661191099 -0.0011237141508797506
000100 37 57 b6 ed 8a 6a 5f 3f 8a a4 f2 3a 34 7d 80 bf
       0.0019174916004422568 -0.008051307724900054
000110 ae 07 ad c6 dc 00 57 bf 98 54 c8 38 f0 23 1d 3f
       -0.0014040142074951234 0.0001111617440943839
000120 76 19 7c 9a 6b 29 73 bf ea 95 f3 77 83 00 62 3f
       -0.004678173376083774 0.0021975105042766245
000130 8e 6d 51 da c0 06 7b bf 98 98 ff 7a bb 45 4a 3f
       -0.006598237353581905 0.000801769774622557
000140 bd ec c4 1c ff 5a 19 3f 0a 89 09 f6 9c 82 60 3f
       9.672338564297146e-05 0.002015406193366269
000150 0c b1 5a 1f 17 4e 62 bf 18 68 e0 97 be 0a 24 bf
       -0.002234501992310572 -0.00015290810182550028
000160 e9 61 9f 2c 5c 1b 6a bf e6 36 1e 21 5d d3 30 bf
       -0.0031868744162972707 -0.00025673888841813567
000170 9e 90 fa e0 3c 90 55 bf 61 c4 e2 1b 89 38 71 bf
       -0.0013161272544630963 -0.004204307157281568
000180 f8 06 c2 45 63 27 60 bf 8c f6 5a e1 f8 b9 63 bf
       -0.0019719065585953564 -0.0024080143874403766
000190 fe 7e 2c ef 14 1e 7c bf b8 25 3c 64 08 93 45 bf
       -0.006864625715735205 -0.0006583968138055762
0001a0 df e2 73 c4 25 d9 65 bf ce 9f 08 93 84 88 4a bf
       -0.0026670205730819764 -0.0008097312293715521
0001b0 07 cc 72 85 04 db 53 bf 99 b6 db 7f 53 d9 69 3f
       -0.0012118858483460852 0.003155387005668708
0001c0 f9 ce 69 c0 4e 84 62 bf fb 56 40 63 1d 21 72 3f
       -0.0022603548161955725 0.004426111980156962
0001d0 34 ed 82 3e 03 cf 6a 3f d2 48 82 d8 fc d4 3d bf
       0.0032725394595140237 -0.00045519993774080253
0001e0 34 9c 84 f9 36 94 5c 3f de c9 c9 97 c3 e7 65 bf
       0.0017443215238672873 -0.002673990266253797
0001f0 3c 64 c1 7f e3 d4 69 3f 46 1c 96 34 4a e0 83 bf
       0.003153271040031073 -0.009705142717178938
000200 28 d5 91 a1 12 b4 7b bf 62 33 dc 5c 18 15 49 3f
       -0.006763527658326475 0.0007654541929881071
000210 08 42 d6 cf e7 93 61 bf 58 34 99 16 87 dc 0e bf
       -0.0021457221579981346 -5.886351830195678e-05
000220 03 1a 21 5a f6 e5 75 bf 6a 03 5d d3 04 ac 5b bf
       -0.005346262276424432 -0.0016889617085810945
000230 85 16 6d a7 ca 1d 79 3f e6 19 27 3d d6 18 8b bf
       0.006131927125186847 -0.013230966321214187
000240 44 f3 3a 29 dc fe 69 bf ec 3a f6 72 47 42 6e bf
       -0.003173284532606154 -0.003693713711704452
000250 2a 93 6f 69 21 69 51 bf 62 d7 9a d0 c1 3b 4c 3f
       -0.0010626627242739752 0.0008616157876619563
000260 f4 2d e1 7c b2 c8 4c bf f9 30 05 35 ab 99 50 bf
       -0.0008784171602739797 -0.0010131999916494479
000270 42 8a 7d 67 46 2a 57 3f 0c 54 2f 83 35 f1 2e bf
       0.0014138877431483375 -0.00023607042530096633
000280 44 13 61 a0 14 d4 81 bf ba f5 97 f3 52 e8 89 bf
       -0.00870529283941724 -0.012650154169928086
000290 c8 65 b5 e6 8b 97 50 bf 4e de a6 12 71 90 77 bf
       -0.0010126939985951478 -0.005752984705786069
0002a0 de 17 d9 06 9a a4 33 bf d5 87 7a 91 16 f1 61 bf
       -0.00029972801607802506 -0.002190155104316619
0002b0 6d b6 2a da f9 2d 65 3f b4 5d 55 2d 17 2d 40 3f
       0.002585399620634024 0.0004936564607004785
0002c0 db 4e eb b0 d4 07 77 bf e0 e7 98 31 59 3a 59 bf
       -0.005622702431270911 -0.0015397902519809145
0002d0 74 c7 ea f7 48 fb 69 bf 77 e7 82 5e 01 a9 64 bf
       -0.0031715798534940835 -0.002521994280042013
0002e0 8b 9a 2c 92 f4 c3 50 bf c6 6f 31 d5 41 c7 63 3f
       -0.0010232818974117732 0.002414349155101167
0002f0 11 4b 94 18 67 ac 35 3f 45 3a 5f 51 32 4e 54 bf
       0.00033071057312487976 -0.0012393466363282018
000300 79 63 b3 f1 78 eb 58 3f 35 6d 97 a0 5d 88 70 bf
       0.0015209847540999784 -0.004036298495943049
000310 68 7f 72 64 b8 f7 55 3f 40 7a f1 0b 1d 1e 6b bf
       0.0013407993990668058 -0.0033102576558541597
000320 9e 94 92 be 0e c8 74 bf 60 1c 76 32 99 a1 57 3f
       -0.005073602290541461 0.001442336660916664
000330 8c bf 2f 98 0e b8 68 3f 0b d3 f8 fc 3c 09 7f 3f
       0.003017452721444108 0.00757716964249223
000340 38 8e a9 06 08 07 39 bf 56 22 be 33 b1 68 7d bf
       -0.00038188882778042747 -0.007179920383244628
000350 55 3b 54 72 53 02 7c bf 32 fa 91 2f b9 77 5c 3f
       -0.006838155711433942 0.0017375286536488563
000360 2b c9 df f1 09 a0 37 3f 78 d8 22 94 4f a6 6d 3f
       0.00036049120706062543 0.003619342257560606
000370 c4 58 79 5b 81 d6 70 bf 1b 4c 54 a8 fa 91 84 bf
       -0.0041108181972814885 -0.010044058095934052
000380 da ca cb 76 af e8 57 bf 54 d1 49 24 07 c0 75 bf
       -0.0014592851177296835 -0.005310085198847087
000390 8d 61 29 0d 15 39 70 3f 27 40 f3 cf 6e 78 76 bf
       0.003960687858658563 -0.0054859474759752285
0003a0 0b 46 9f b6 a8 87 37 bf cc 27 e2 62 90 df 64 bf
       -0.0003590380571242008 -0.002548009876652357
0003b0 f4 60 c9 02 e8 ef 55 bf 3e 91 68 12 a1 85 7d bf
       -0.0013389363986303056 -0.0072075168486985235
0003c0 79 b8 09 c3 b6 7a 5c bf 81 cf 1e c8 16 e7 69 bf
       -0.001738241651902976 -0.0031619496303054166
0003d0 0e de ef a1 64 8f 72 bf ac a4 00 e0 b6 47 79 bf
       -0.004531281562769175 -0.0061719077639647395
0003e0 02 4e 4f 2c f8 3e 76 bf 3d 5a 70 43 38 86 44 bf
       -0.005431146074403427 -0.0006263518070024964
0003f0 bf 6e 58 3c 3f 8c 4b 3f a9 8e 60 eb e0 5d 7d bf
       0.0008406933563409254 -0.0071696077266413605
000400 83 e6 76 ee 76 0f 81 bf 3f 9a 30 a4 a1 e6 35 bf
       -0.008330277588231688 -0.00033418127367427006
000410 3c 61 73 d4 89 1a 62 bf 42 c8 3f 0b 15 0c 74 bf
       -0.002209920119281032 -0.004894334986589812
000420 13 1b bc db 07 07 68 3f 5b 56 1b e7 93 19 72 bf
       0.002933039997404471 -0.004418924088630395
000430 20 c5 63 74 f9 c1 8e 3f 71 74 7a 01 f2 80 78 bf
       0.015018414368088318 -0.005982346854264895
000440 7a 94 48 d7 70 4f 5b 3f 00 70 ea 4a 8b 9c 6c 3f
       0.0016668893778242475 0.0034926147994394086
000450 43 5a 1f 4b f9 d2 5d 3f 93 8f 35 1b 9c 5d 5c bf
       0.001820319605476365 -0.0017313026881646584
000460 60 52 45 9b a1 fb 65 3f 03 ba ca c9 3b 08 5b 3f
       0.002683463704821684 0.0016499122495293734
000470 0f 68 4c 32 39 a5 5d 3f a4 34 7a 8c 5c fe 8f bf
       0.0018094118651732526 -0.015621874844578727
000480 b2 75 01 40 35 c8 5b bf ca f3 9d e3 3c b2 7b 3f
       -0.001695682527518155 0.006761777733001526
000490 68 d4 1d 31 5e 8b 49 3f a9 26 b4 4d 3a 83 88 bf
       0.0007795534058759991 -0.011969047066048804
0004a0 da d3 7a 53 14 dd 5d bf ee 13 12 ff 20 c8 4c bf
       -0.001822728967380663 -0.0008783494105420989
0004b0 70 20 37 2b da 7e d1 be 46 9a 81 44 b2 c1 7c 3f
       -4.171256182634959e-06 0.007020660741636825
0004c0 bf ec 8f 3c 21 e9 88 bf 04 6c de 5c a8 6d 3f bf
       -0.012163409863197193 -0.00047955856722986545
0004d0 98 14 f4 ee f8 5d 75 3f 9e cf 2a fa 0f f9 71 bf
       0.005216572185649991 -0.004387915049551964
0004e0 30 94 32 a7 5c f2 41 3f 17 ed 54 fb 46 b7 78 bf
       0.0005476906211653362 -0.00603416182758145
0004f0 d4 67 9c 33 23 e7 6d bf 7e 6e f3 35 71 f8 44 bf
       -0.003650254014144297 -0.0006399681841701835
000500 31 e7 24 41 4e e1 90 bf 32 bb 90 bf cc 7f 29 3f
       -0.016484472967227496 0.00019454359406397833
000510 08 a9 2e 0b ad 53 7d bf 7b 0b c6 1c 11 83 7b 3f
       -0.00715987773120675 0.006716791959095465
000520 1b 1e 57 6e 42 6d 64 3f bd 38 3c 43 6f a5 79 bf
       0.0024935052376553585 -0.006261286372831684
000530 e7 8d 89 be 01 1e 70 3f 4b 89 03 f4 1c 0f 4c bf
       0.003934866727465436 -0.0008562938092178477
000540 fc a7 b7 51 5c dc 04 3f e8 46 9b 47 55 26 7f 3f
       3.978878723016885e-05 0.007604916690711262
000550 61 94 cd f8 a2 f7 3c bf b1 3a a0 56 6c 3d 85 bf
       -0.0004420063858588449 -0.010371061700451408
000560 8d 4b 88 33 38 21 41 bf 96 97 6c 7d 5d bc 6b bf
       -0.0005227589054491597 -0.003385717961822142
000570 d8 cb 13 d2 c1 4f 56 3f 73 56 5d f8 cf f1 4c bf
       0.0013617890147627956 -0.0008833184699407873
000580 60 52 d1 3c df a5 07 3f de 01 01 c6 38 d4 80 bf
       4.510486142153959e-05 -0.008217280905342624
000590 2a a8 7f d2 36 f2 75 bf 84 e3 08 24 b6 20 62 3f
       -0.0053579465384050815 0.002212863677666767
0005a0 9a 46 d9 d4 b8 f0 6f bf 5b 1b 17 6c a5 13 58 3f
       -0.003898964880854572 0.0014695277644578206
0005b0 3e 0a 63 c4 7c 2f 2b bf 09 1d cf 2c 1f 46 7d bf
       -0.0002074088863022894 -0.007146951463204995
0005c0 3b 7d 84 dc 24 5e 22 bf 8e cb 14 dd 9c 21 7f bf
       -0.0001401348110982944 -0.007600414989883298
0005d0 77 e7 8d 90 34 cc 75 bf f2 98 e3 a0 3a 2a 4a 3f
       -0.0053216985041845055 0.0007984911224212783
0005e0 cb 68 a1 68 be 99 5e bf 10 c1 d4 fa ac ce 65 3f
       -0.0018677100620352767 0.0026620272170917517
0005f0 04 03 76 c7 c0 d7 3a 3f eb b8 9c e7 4e ea 7e bf
       0.00040958839914399824 -0.007547672483083394
000600 6a d8 30 45 66 b3 6a bf 24 42 41 79 58 ed 65 bf
       -0.003259372469552925 -0.0026766517640128985
000610 12 1f 7f 4b 13 c3 17 bf 56 6f 77 26 f4 b4 67 bf
       -9.064488665366476e-05 -0.0028939026412739084
000620 f4 7d 38 2b 64 2f 77 bf f9 c4 92 5c 32 8d 7e 3f
       -0.005660430225844493 0.007458874440247281
000630 6c 17 2e 6f 3e 00 78 bf 5e 61 98 e7 6e 08 65 bf
       -0.005859607585881093 -0.002567497835809159
000640 2d fd b3 18 db 3a 60 3f 98 73 54 65 23 db 77 bf
       0.0019811896542020397 -0.005824220909997367
000650 50 b7 f1 1e e2 07 62 3f fa cb 53 1a 84 d3 62 bf
       0.0022010246680598602 -0.0022981243260971037
000660 c3 62 9f 3f c1 71 59 3f 2d a5 fb 49 17 8e 5e 3f
       0.0015530001824030505 0.0018649318153001846
000670 79 0e 09 e4 97 4f 78 bf a6 d8 90 27 3a a2 51 bf
       -0.005935281108182638 -0.0010762756267133438
000680 7c 10 73 09 67 ab 7b bf 15 70 ac ab 37 58 7f bf
       -0.006755259025514101 -0.007652490103989625
000690 82 bd b8 bd fc f9 6c 3f d6 59 7b 40 74 3c f4 3e
       0.0035371719693768075 1.929869543356742e-05
0006a0 88 a7 7b 4a 89 c1 f7 3e aa 61 4c 25 6b c8 7b bf
       2.2655488151202978e-05 -0.0067829308871058345
0006b0 60 2f 3c 7a 86 51 e8 be bb b6 ea 53 9c 69 64 bf
       -1.1595944506413442e-05 -0.0024917653348300573
0006c0 09 f0 7b 1a 0a ab 75 bf 06 c4 c6 93 1f e9 49 3f
       -0.005290069071403288 0.0007907299218939963
0006d0 51 9c f4 2b 57 0b 81 3f 4f 26 d1 e9 e6 35 8b bf
       0.008322411564746586 -0.013286403666046413
0006e0 48 9b 4a d1 82 21 8b bf 7e 87 b8 75 98 33 5c 3f
       -0.013247510921542763 0.0017212857118313603
0006f0 ea 18 e3 5f 8c 45 6f 3f f6 73 e4 80 4e 4d 77 3f
       0.0038173429194073754 0.0056889597456377585
000700 93 25 5b 8d 74 50 77 3f cb 5e a0 f3 fa ac 7e bf
       0.005691962510988263 -0.007489185600227886
000710 ba b8 da 73 ef 82 63 bf 2b cb e1 75 09 be 30 bf
       -0.0023817707832086395 -0.0002554677101961773
000720 6a 56 c9 32 36 b8 75 bf 02 46 1d 73 c1 ca 62 3f
       -0.005302631103935343 0.0022939470590379605
000730 25 83 50 d2 18 eb 47 bf 40 27 61 e6 26 08 fc 3e
       -0.0007299300383501779 2.6733249250100082e-05
000740 3d 32 00 dc e0 39 53 3f 90 30 c5 c5 c0 27 30 3f
       0.0011734672443736293 0.00024651008950083656
000750 a2 9a a1 5c 03 0d 71 bf b3 2a 23 8b 82 01 3d 3f
       -0.0041628009149465035 0.0004425948819856515
000760 0f cb 8c 57 5c bb 41 bf b6 8d cc a2 e8 24 81 bf
       -0.0005411339653619024 -0.008371179073555318
000770 db 81 97 b0 59 61 86 3f 0c 3d 21 92 4b 6f 61 bf
       0.010927868558554479 -0.002128264998681245
000780 1c 16 e6 68 d1 b9 39 3f da 77 46 99 6f f2 72 3f
       0.0003925453428553509 0.004625736172242123
000790 14 f8 92 d0 f9 34 54 bf cc d6 97 68 b5 79 44 3f
       -0.0012333335492225083 0.0006248603614824265
0007a0 cc 81 47 63 a8 ca 52 bf 5e f2 29 6d f6 90 55 bf
       -0.0011469501888471288 -0.0013163000591297695
0007b0 c6 a8 69 d5 9d f7 64 bf 34 54 b0 02 d6 eb 5b 3f
       -0.00255947901614659 0.0017041768976515772
0007c0 7e c1 b6 74 1d 1c 67 3f 15 b8 ae ce ac bf 4a 3f
       0.0028210234938443315 0.0008163064752488869
0007d0 c1 a4 f3 13 6f be 3e bf c9 3c aa 37 99 07 46 3f
       -0.000469114416729765 0.0006722925312078405
0007e0 16 2c 76 60 68 94 53 bf 77 3b 3e 8b f6 72 3a bf
       -0.0011950511269300849 -0.0004035808481085904
0007f0 c5 ff f3 b2 67 e9 7a 3f 66 c0 c7 69 38 87 5b bf
       0.0065702486747340515 -0.0016801882658193045
